STG-NF/data/exp_dir/PoseLift/Sep09_1644/Sep09_1644__checkpoint.pth.tar (torch, 155305 bytes, 373 tensors)

prior_h f4 [1, 4, 24, 18]
0	0x00000000	0.0
1	0x00000000	0.0
2	0x00000000	0.0
3	0x00000000	0.0
4	0x00000000	0.0
5	0x00000000	0.0
6	0x00000000	0.0
7	0x00000000	0.0
8	0x00000000	0.0
9	0x00000000	0.0
10	0x00000000	0.0
11	0x00000000	0.0
12	0x00000000	0.0
13	0x00000000	0.0
14	0x00000000	0.0
15	0x00000000	0.0
16	0x00000000	0.0
17	0x00000000	0.0
18	0x00000000	0.0
19	0x00000000	0.0
20	0x00000000	0.0
21	0x00000000	0.0
22	0x00000000	0.0
23	0x00000000	0.0
24	0x00000000	0.0
25	0x00000000	0.0
26	0x00000000	0.0
27	0x00000000	0.0
28	0x00000000	0.0
29	0x00000000	0.0
30	0x00000000	0.0
31	0x00000000	0.0
32	0x00000000	0.0
33	0x00000000	0.0
34	0x00000000	0.0
35	0x00000000	0.0
36	0x00000000	0.0
37	0x00000000	0.0
38	0x00000000	0.0
39	0x00000000	0.0
40	0x00000000	0.0
41	0x00000000	0.0
42	0x00000000	0.0
43	0x00000000	0.0
44	0x00000000	0.0
45	0x00000000	0.0
46	0x00000000	0.0
47	0x00000000	0.0
48	0x00000000	0.0
49	0x00000000	0.0
50	0x00000000	0.0
51	0x00000000	0.0
52	0x00000000	0.0
53	0x00000000	0.0
54	0x00000000	0.0
55	0x00000000	0.0
56	0x00000000	0.0
57	0x00000000	0.0
58	0x00000000	0.0
59	0x00000000	0.0
60	0x00000000	0.0
61	0x00000000	0.0
62	0x00000000	0.0
63	0x00000000	0.0
64	0x00000000	0.0
65	0x00000000	0.0
66	0x00000000	0.0
67	0x00000000	0.0
68	0x00000000	0.0
69	0x00000000	0.0
70	0x00000000	0.0
71	0x00000000	0.0
72	0x00000000	0.0
73	0x00000000	0.0
74	0x00000000	0.0
75	0x00000000	0.0
76	0x00000000	0.0
77	0x00000000	0.0
78	0x00000000	0.0
79	0x00000000	0.0
80	0x00000000	0.0
81	0x00000000	0.0
82	0x00000000	0.0
83	0x00000000	0.0
84	0x00000000	0.0
85	0x00000000	0.0
86	0x00000000	0.0
87	0x00000000	0.0
88	0x00000000	0.0
89	0x00000000	0.0
90	0x00000000	0.0
91	0x00000000	0.0
92	0x00000000	0.0
93	0x00000000	0.0
94	0x00000000	0.0
95	0x00000000	0.0
96	0x00000000	0.0
97	0x00000000	0.0
98	0x00000000	0.0
99	0x00000000	0.0
100	0x00000000	0.0
101	0x00000000	0.0
102	0x00000000	0.0
103	0x00000000	0.0
104	0x00000000	0.0
105	0x00000000	0.0
106	0x00000000	0.0
107	0x00000000	0.0
108	0x00000000	0.0
109	0x00000000	0.0
110	0x00000000	0.0
111	0x00000000	0.0
112	0x00000000	0.0
113	0x00000000	0.0
114	0x00000000	0.0
115	0x00000000	0.0
116	0x00000000	0.0
117	0x00000000	0.0
118	0x00000000	0.0
119	0x00000000	0.0
120	0x00000000	0.0
121	0x00000000	0.0
122	0x00000000	0.0
123	0x00000000	0.0
124	0x00000000	0.0
125	0x00000000	0.0
126	0x00000000	0.0
127	0x00000000	0.0
128	0x00000000	0.0
129	0x00000000	0.0
130	0x00000000	0.0
131	0x00000000	0.0
132	0x00000000	0.0
133	0x00000000	0.0
134	0x00000000	0.0
135	0x00000000	0.0
136	0x00000000	0.0
137	0x00000000	0.0
138	0x00000000	0.0
139	0x00000000	0.0
140	0x00000000	0.0
141	0x00000000	0.0
142	0x00000000	0.0
143	0x00000000	0.0
144	0x00000000	0.0
145	0x00000000	0.0
146	0x00000000	0.0
147	0x00000000	0.0
148	0x00000000	0.0
149	0x00000000	0.0
150	0x00000000	0.0
151	0x00000000	0.0
152	0x00000000	0.0
153	0x00000000	0.0
154	0x00000000	0.0
155	0x00000000	0.0
156	0x00000000	0.0
157	0x00000000	0.0
158	0x00000000	0.0
159	0x00000000	0.0
160	0x00000000	0.0
161	0x00000000	0.0
162	0x00000000	0.0
163	0x00000000	0.0
164	0x00000000	0.0
165	0x00000000	0.0
166	0x00000000	0.0
167	0x00000000	0.0
168	0x00000000	0.0
169	0x00000000	0.0
170	0x00000000	0.0
171	0x00000000	0.0
172	0x00000000	0.0
173	0x00000000	0.0
174	0x00000000	0.0
175	0x00000000	0.0
176	0x00000000	0.0
177	0x00000000	0.0
178	0x00000000	0.0
179	0x00000000	0.0
180	0x00000000	0.0
181	0x00000000	0.0
182	0x00000000	0.0
183	0x00000000	0.0
184	0x00000000	0.0
185	0x00000000	0.0
186	0x00000000	0.0
187	0x00000000	0.0
188	0x00000000	0.0
189	0x00000000	0.0
190	0x00000000	0.0
191	0x00000000	0.0
192	0x00000000	0.0
193	0x00000000	0.0
194	0x00000000	0.0
195	0x00000000	0.0
196	0x00000000	0.0
197	0x00000000	0.0
198	0x00000000	0.0
199	0x00000000	0.0
200	0x00000000	0.0
201	0x00000000	0.0
202	0x00000000	0.0
203	0x00000000	0.0
204	0x00000000	0.0
205	0x00000000	0.0
206	0x00000000	0.0
207	0x00000000	0.0
208	0x00000000	0.0
209	0x00000000	0.0
210	0x00000000	0.0
211	0x00000000	0.0
212	0x00000000	0.0
213	0x00000000	0.0
214	0x00000000	0.0
215	0x00000000	0.0
216	0x00000000	0.0
217	0x00000000	0.0
218	0x00000000	0.0
219	0x00000000	0.0
220	0x00000000	0.0
221	0x00000000	0.0
222	0x00000000	0.0
223	0x00000000	0.0
224	0x00000000	0.0
225	0x00000000	0.0
226	0x00000000	0.0
227	0x00000000	0.0
228	0x00000000	0.0
229	0x00000000	0.0
230	0x00000000	0.0
231	0x00000000	0.0
232	0x00000000	0.0
233	0x00000000	0.0
234	0x00000000	0.0
235	0x00000000	0.0
236	0x00000000	0.0
237	0x00000000	0.0
238	0x00000000	0.0
239	0x00000000	0.0
240	0x00000000	0.0
241	0x00000000	0.0
242	0x00000000	0.0
243	0x00000000	0.0
244	0x00000000	0.0
245	0x00000000	0.0
246	0x00000000	0.0
247	0x00000000	0.0
248	0x00000000	0.0
249	0x00000000	0.0
250	0x00000000	0.0
251	0x00000000	0.0
252	0x00000000	0.0
253	0x00000000	0.0
254	0x00000000	0.0
255	0x00000000	0.0

prior_h_normal f4 [4, 24, 18]
0	0x40400000	3.0
1	0x40400000	3.0
2	0x40400000	3.0
3	0x40400000	3.0
4	0x40400000	3.0
5	0x40400000	3.0
6	0x40400000	3.0
7	0x40400000	3.0
8	0x40400000	3.0
9	0x40400000	3.0
10	0x40400000	3.0
11	0x40400000	3.0
12	0x40400000	3.0
13	0x40400000	3.0
14	0x40400000	3.0
15	0x40400000	3.0
16	0x40400000	3.0
17	0x40400000	3.0
18	0x40400000	3.0
19	0x40400000	3.0
20	0x40400000	3.0
21	0x40400000	3.0
22	0x40400000	3.0
23	0x40400000	3.0
24	0x40400000	3.0
25	0x40400000	3.0
26	0x40400000	3.0
27	0x40400000	3.0
28	0x40400000	3.0
29	0x40400000	3.0
30	0x40400000	3.0
31	0x40400000	3.0
32	0x40400000	3.0
33	0x40400000	3.0
34	0x40400000	3.0
35	0x40400000	3.0
36	0x40400000	3.0
37	0x40400000	3.0
38	0x40400000	3.0
39	0x40400000	3.0
40	0x40400000	3.0
41	0x40400000	3.0
42	0x40400000	3.0
43	0x40400000	3.0
44	0x40400000	3.0
45	0x40400000	3.0
46	0x40400000	3.0
47	0x40400000	3.0
48	0x40400000	3.0
49	0x40400000	3.0
50	0x40400000	3.0
51	0x40400000	3.0
52	0x40400000	3.0
53	0x40400000	3.0
54	0x40400000	3.0
55	0x40400000	3.0
56	0x40400000	3.0
57	0x40400000	3.0
58	0x40400000	3.0
59	0x40400000	3.0
60	0x40400000	3.0
61	0x40400000	3.0
62	0x40400000	3.0
63	0x40400000	3.0
64	0x40400000	3.0
65	0x40400000	3.0
66	0x40400000	3.0
67	0x40400000	3.0
68	0x40400000	3.0
69	0x40400000	3.0
70	0x40400000	3.0
71	0x40400000	3.0
72	0x40400000	3.0
73	0x40400000	3.0
74	0x40400000	3.0
75	0x40400000	3.0
76	0x40400000	3.0
77	0x40400000	3.0
78	0x40400000	3.0
79	0x40400000	3.0
80	0x40400000	3.0
81	0x40400000	3.0
82	0x40400000	3.0
83	0x40400000	3.0
84	0x40400000	3.0
85	0x40400000	3.0
86	0x40400000	3.0
87	0x40400000	3.0
88	0x40400000	3.0
89	0x40400000	3.0
90	0x40400000	3.0
91	0x40400000	3.0
92	0x40400000	3.0
93	0x40400000	3.0
94	0x40400000	3.0
95	0x40400000	3.0
96	0x40400000	3.0
97	0x40400000	3.0
98	0x40400000	3.0
99	0x40400000	3.0
100	0x40400000	3.0
101	0x40400000	3.0
102	0x40400000	3.0
103	0x40400000	3.0
104	0x40400000	3.0
105	0x40400000	3.0
106	0x40400000	3.0
107	0x40400000	3.0
108	0x40400000	3.0
109	0x40400000	3.0
110	0x40400000	3.0
111	0x40400000	3.0
112	0x40400000	3.0
113	0x40400000	3.0
114	0x40400000	3.0
115	0x40400000	3.0
116	0x40400000	3.0
117	0x40400000	3.0
118	0x40400000	3.0
119	0x40400000	3.0
120	0x40400000	3.0
121	0x40400000	3.0
122	0x40400000	3.0
123	0x40400000	3.0
124	0x40400000	3.0
125	0x40400000	3.0
126	0x40400000	3.0
127	0x40400000	3.0
128	0x40400000	3.0
129	0x40400000	3.0
130	0x40400000	3.0
131	0x40400000	3.0
132	0x40400000	3.0
133	0x40400000	3.0
134	0x40400000	3.0
135	0x40400000	3.0
136	0x40400000	3.0
137	0x40400000	3.0
138	0x40400000	3.0
139	0x40400000	3.0
140	0x40400000	3.0
141	0x40400000	3.0
142	0x40400000	3.0
143	0x40400000	3.0
144	0x40400000	3.0
145	0x40400000	3.0
146	0x40400000	3.0
147	0x40400000	3.0
148	0x40400000	3.0
149	0x40400000	3.0
150	0x40400000	3.0
151	0x40400000	3.0
152	0x40400000	3.0
153	0x40400000	3.0
154	0x40400000	3.0
155	0x40400000	3.0
156	0x40400000	3.0
157	0x40400000	3.0
158	0x40400000	3.0
159	0x40400000	3.0
160	0x40400000	3.0
161	0x40400000	3.0
162	0x40400000	3.0
163	0x40400000	3.0
164	0x40400000	3.0
165	0x40400000	3.0
166	0x40400000	3.0
167	0x40400000	3.0
168	0x40400000	3.0
169	0x40400000	3.0
170	0x40400000	3.0
171	0x40400000	3.0
172	0x40400000	3.0
173	0x40400000	3.0
174	0x40400000	3.0
175	0x40400000	3.0
176	0x40400000	3.0
177	0x40400000	3.0
178	0x40400000	3.0
179	0x40400000	3.0
180	0x40400000	3.0
181	0x40400000	3.0
182	0x40400000	3.0
183	0x40400000	3.0
184	0x40400000	3.0
185	0x40400000	3.0
186	0x40400000	3.0
187	0x40400000	3.0
188	0x40400000	3.0
189	0x40400000	3.0
190	0x40400000	3.0
191	0x40400000	3.0
192	0x40400000	3.0
193	0x40400000	3.0
194	0x40400000	3.0
195	0x40400000	3.0
196	0x40400000	3.0
197	0x40400000	3.0
198	0x40400000	3.0
199	0x40400000	3.0
200	0x40400000	3.0
201	0x40400000	3.0
202	0x40400000	3.0
203	0x40400000	3.0
204	0x40400000	3.0
205	0x40400000	3.0
206	0x40400000	3.0
207	0x40400000	3.0
208	0x40400000	3.0
209	0x40400000	3.0
210	0x40400000	3.0
211	0x40400000	3.0
212	0x40400000	3.0
213	0x40400000	3.0
214	0x40400000	3.0
215	0x40400000	3.0
216	0x40400000	3.0
217	0x40400000	3.0
218	0x40400000	3.0
219	0x40400000	3.0
220	0x40400000	3.0
221	0x40400000	3.0
222	0x40400000	3.0
223	0x40400000	3.0
224	0x40400000	3.0
225	0x40400000	3.0
226	0x40400000	3.0
227	0x40400000	3.0
228	0x40400000	3.0
229	0x40400000	3.0
230	0x40400000	3.0
231	0x40400000	3.0
232	0x40400000	3.0
233	0x40400000	3.0
234	0x40400000	3.0
235	0x40400000	3.0
236	0x40400000	3.0
237	0x40400000	3.0
238	0x40400000	3.0
239	0x40400000	3.0
240	0x40400000	3.0
241	0x40400000	3.0
242	0x40400000	3.0
243	0x40400000	3.0
244	0x40400000	3.0
245	0x40400000	3.0
246	0x40400000	3.0
247	0x40400000	3.0
248	0x40400000	3.0
249	0x40400000	3.0
250	0x40400000	3.0
251	0x40400000	3.0
252	0x40400000	3.0
253	0x40400000	3.0
254	0x40400000	3.0
255	0x40400000	3.0

prior_h_abnormal f4 [4, 24, 18]
0	0xc0400000	-3.0
1	0xc0400000	-3.0
2	0xc0400000	-3.0
3	0xc0400000	-3.0
4	0xc0400000	-3.0
5	0xc0400000	-3.0
6	0xc0400000	-3.0
7	0xc0400000	-3.0
8	0xc0400000	-3.0
9	0xc0400000	-3.0
10	0xc0400000	-3.0
11	0xc0400000	-3.0
12	0xc0400000	-3.0
13	0xc0400000	-3.0
14	0xc0400000	-3.0
15	0xc0400000	-3.0
16	0xc0400000	-3.0
17	0xc0400000	-3.0
18	0xc0400000	-3.0
19	0xc0400000	-3.0
20	0xc0400000	-3.0
21	0xc0400000	-3.0
22	0xc0400000	-3.0
23	0xc0400000	-3.0
24	0xc0400000	-3.0
25	0xc0400000	-3.0
26	0xc0400000	-3.0
27	0xc0400000	-3.0
28	0xc0400000	-3.0
29	0xc0400000	-3.0
30	0xc0400000	-3.0
31	0xc0400000	-3.0
32	0xc0400000	-3.0
33	0xc0400000	-3.0
34	0xc0400000	-3.0
35	0xc0400000	-3.0
36	0xc0400000	-3.0
37	0xc0400000	-3.0
38	0xc0400000	-3.0
39	0xc0400000	-3.0
40	0xc0400000	-3.0
41	0xc0400000	-3.0
42	0xc0400000	-3.0
43	0xc0400000	-3.0
44	0xc0400000	-3.0
45	0xc0400000	-3.0
46	0xc0400000	-3.0
47	0xc0400000	-3.0
48	0xc0400000	-3.0
49	0xc0400000	-3.0
50	0xc0400000	-3.0
51	0xc0400000	-3.0
52	0xc0400000	-3.0
53	0xc0400000	-3.0
54	0xc0400000	-3.0
55	0xc0400000	-3.0
56	0xc0400000	-3.0
57	0xc0400000	-3.0
58	0xc0400000	-3.0
59	0xc0400000	-3.0
60	0xc0400000	-3.0
61	0xc0400000	-3.0
62	0xc0400000	-3.0
63	0xc0400000	-3.0
64	0xc0400000	-3.0
65	0xc0400000	-3.0
66	0xc0400000	-3.0
67	0xc0400000	-3.0
68	0xc0400000	-3.0
69	0xc0400000	-3.0
70	0xc0400000	-3.0
71	0xc0400000	-3.0
72	0xc0400000	-3.0
73	0xc0400000	-3.0
74	0xc0400000	-3.0
75	0xc0400000	-3.0
76	0xc0400000	-3.0
77	0xc0400000	-3.0
78	0xc0400000	-3.0
79	0xc0400000	-3.0
80	0xc0400000	-3.0
81	0xc0400000	-3.0
82	0xc0400000	-3.0
83	0xc0400000	-3.0
84	0xc0400000	-3.0
85	0xc0400000	-3.0
86	0xc0400000	-3.0
87	0xc0400000	-3.0
88	0xc0400000	-3.0
89	0xc0400000	-3.0
90	0xc0400000	-3.0
91	0xc0400000	-3.0
92	0xc0400000	-3.0
93	0xc0400000	-3.0
94	0xc0400000	-3.0
95	0xc0400000	-3.0
96	0xc0400000	-3.0
97	0xc0400000	-3.0
98	0xc0400000	-3.0
99	0xc0400000	-3.0
100	0xc0400000	-3.0
101	0xc0400000	-3.0
102	0xc0400000	-3.0
103	0xc0400000	-3.0
104	0xc0400000	-3.0
105	0xc0400000	-3.0
106	0xc0400000	-3.0
107	0xc0400000	-3.0
108	0xc0400000	-3.0
109	0xc0400000	-3.0
110	0xc0400000	-3.0
111	0xc0400000	-3.0
112	0xc0400000	-3.0
113	0xc0400000	-3.0
114	0xc0400000	-3.0
115	0xc0400000	-3.0
116	0xc0400000	-3.0
117	0xc0400000	-3.0
118	0xc0400000	-3.0
119	0xc0400000	-3.0
120	0xc0400000	-3.0
121	0xc0400000	-3.0
122	0xc0400000	-3.0
123	0xc0400000	-3.0
124	0xc0400000	-3.0
125	0xc0400000	-3.0
126	0xc0400000	-3.0
127	0xc0400000	-3.0
128	0xc0400000	-3.0
129	0xc0400000	-3.0
130	0xc0400000	-3.0
131	0xc0400000	-3.0
132	0xc0400000	-3.0
133	0xc0400000	-3.0
134	0xc0400000	-3.0
135	0xc0400000	-3.0
136	0xc0400000	-3.0
137	0xc0400000	-3.0
138	0xc0400000	-3.0
139	0xc0400000	-3.0
140	0xc0400000	-3.0
141	0xc0400000	-3.0
142	0xc0400000	-3.0
143	0xc0400000	-3.0
144	0xc0400000	-3.0
145	0xc0400000	-3.0
146	0xc0400000	-3.0
147	0xc0400000	-3.0
148	0xc0400000	-3.0
149	0xc0400000	-3.0
150	0xc0400000	-3.0
151	0xc0400000	-3.0
152	0xc0400000	-3.0
153	0xc0400000	-3.0
154	0xc0400000	-3.0
155	0xc0400000	-3.0
156	0xc0400000	-3.0
157	0xc0400000	-3.0
158	0xc0400000	-3.0
159	0xc0400000	-3.0
160	0xc0400000	-3.0
161	0xc0400000	-3.0
162	0xc0400000	-3.0
163	0xc0400000	-3.0
164	0xc0400000	-3.0
165	0xc0400000	-3.0
166	0xc0400000	-3.0
167	0xc0400000	-3.0
168	0xc0400000	-3.0
169	0xc0400000	-3.0
170	0xc0400000	-3.0
171	0xc0400000	-3.0
172	0xc0400000	-3.0
173	0xc0400000	-3.0
174	0xc0400000	-3.0
175	0xc0400000	-3.0
176	0xc0400000	-3.0
177	0xc0400000	-3.0
178	0xc0400000	-3.0
179	0xc0400000	-3.0
180	0xc0400000	-3.0
181	0xc0400000	-3.0
182	0xc0400000	-3.0
183	0xc0400000	-3.0
184	0xc0400000	-3.0
185	0xc0400000	-3.0
186	0xc0400000	-3.0
187	0xc0400000	-3.0
188	0xc0400000	-3.0
189	0xc0400000	-3.0
190	0xc0400000	-3.0
191	0xc0400000	-3.0
192	0xc0400000	-3.0
193	0xc0400000	-3.0
194	0xc0400000	-3.0
195	0xc0400000	-3.0
196	0xc0400000	-3.0
197	0xc0400000	-3.0
198	0xc0400000	-3.0
199	0xc0400000	-3.0
200	0xc0400000	-3.0
201	0xc0400000	-3.0
202	0xc0400000	-3.0
203	0xc0400000	-3.0
204	0xc0400000	-3.0
205	0xc0400000	-3.0
206	0xc0400000	-3.0
207	0xc0400000	-3.0
208	0xc0400000	-3.0
209	0xc0400000	-3.0
210	0xc0400000	-3.0
211	0xc0400000	-3.0
212	0xc0400000	-3.0
213	0xc0400000	-3.0
214	0xc0400000	-3.0
215	0xc0400000	-3.0
216	0xc0400000	-3.0
217	0xc0400000	-3.0
218	0xc0400000	-3.0
219	0xc0400000	-3.0
220	0xc0400000	-3.0
221	0xc0400000	-3.0
222	0xc0400000	-3.0
223	0xc0400000	-3.0
224	0xc0400000	-3.0
225	0xc0400000	-3.0
226	0xc0400000	-3.0
227	0xc0400000	-3.0
228	0xc0400000	-3.0
229	0xc0400000	-3.0
230	0xc0400000	-3.0
231	0xc0400000	-3.0
232	0xc0400000	-3.0
233	0xc0400000	-3.0
234	0xc0400000	-3.0
235	0xc0400000	-3.0
236	0xc0400000	-3.0
237	0xc0400000	-3.0
238	0xc0400000	-3.0
239	0xc0400000	-3.0
240	0xc0400000	-3.0
241	0xc0400000	-3.0
242	0xc0400000	-3.0
243	0xc0400000	-3.0
244	0xc0400000	-3.0
245	0xc0400000	-3.0
246	0xc0400000	-3.0
247	0xc0400000	-3.0
248	0xc0400000	-3.0
249	0xc0400000	-3.0
250	0xc0400000	-3.0
251	0xc0400000	-3.0
252	0xc0400000	-3.0
253	0xc0400000	-3.0
254	0xc0400000	-3.0
255	0xc0400000	-3.0

flow.layers.0.actnorm.bias f4 [1, 2, 1, 1]
0	0x3e5d55a0	0.21614695
1	0x3e62985a	0.2212843

flow.layers.0.actnorm.logs f4 [1, 2, 1, 1]
0	0xbed6adf8	-0.41929603
1	0x3de54f06	0.11196713

flow.layers.0.block.0.gcn.conv.weight f4 [2, 1, 1, 1]
0	0xbe9a0a3e	-0.3008594
1	0xbb65c02e	-0.0035057175

flow.layers.0.block.0.gcn.conv.bias f4 [2]
0	0xbf01007a	-0.5039135
1	0x3f46e7ae	0.77697265

flow.layers.0.block.0.tcn.0.weight f4 [2]
0	0x3f810548	1.0079737
1	0x3f7a9fa8	0.97899866

flow.layers.0.block.0.tcn.0.bias f4 [2]
0	0x3dc3b2bd	0.09555576
1	0x3d6e72c3	0.058214914

flow.layers.0.block.0.tcn.0.running_mean f4 [2]
0	0xbf140052	-0.5781299
1	0x3f46b287	0.7761616

flow.layers.0.block.0.tcn.0.running_var f4 [2]
0	0x3d247209	0.040147815
1	0x36b96900	5.5256533e-06

flow.layers.0.block.0.tcn.2.weight f4 [2, 2, 13, 1]
0	0x3d5f3433	0.05449314
1	0xbd78d8a5	-0.060753483
2	0xbb4a5435	-0.0030872945
3	0x3dfc0697	0.123059444
4	0xbbd38c20	-0.006455913
5	0xbdbf424e	-0.093388185
6	0x3be0721e	0.0068495413
7	0x3e3266a1	0.17421962
8	0x3e09a5b2	0.13442114
9	0xbd86d80e	-0.06584178
10	0x3e572941	0.21011831
11	0x3de194a1	0.11014677
12	0x3e6ffe49	0.23436846
13	0x3e091355	0.13386281
14	0x3dcb5f3c	0.09930274
15	0xbd75197b	-0.059838753
16	0x3e491389	0.19636358
17	0x3d354eda	0.04426465
18	0x3e014ef1	0.1262777
19	0x3d8eb037	0.06967204
20	0x3d35f2eb	0.044421118
21	0xbe0145de	-0.12624308
22	0xbdbc6d0a	-0.09200485
23	0x3dc2a330	0.09503782
24	0xbdb866cf	-0.09003984
25	0x3e1b8a69	0.15189518
26	0x3e83598e	0.25654262
27	0xbd7426f0	-0.059607446
28	0x3e392a9f	0.18082665
29	0x3c0c95a6	0.008580601
30	0x3e210f79	0.15728559
31	0x3e304968	0.17215502
32	0x3d96d37e	0.07364558
33	0xbd498ab0	-0.04920453
34	0x3e1e75d6	0.15474638
35	0x3d85932f	0.06522214
36	0xbdac8442	-0.08423664
37	0x3d084396	0.03326758
38	0x3dd62a8b	0.10457333
39	0xbdb01d2a	-0.085993126
40	0xbda95620	-0.0826838
41	0x3de3696b	0.11104091
42	0x3d0668e3	0.03281487
43	0xbe016963	-0.12637858
44	0x3dc497d3	0.09599271
45	0x3ce55eae	0.027999248
46	0x3b8ce9cf	0.004300333
47	0x3d3c410f	0.045960482
48	0x3e2d3d58	0.16917932
49	0xbd0d9be0	-0.034572482
50	0x3d4cf1c9	0.05003527
51	0xbd9e79b7	-0.07738059

flow.layers.0.block.0.tcn.2.bias f4 [2]
0	0xbe0bb0a8	-0.13641608
1	0x3e099ada	0.13437977

flow.layers.0.block.0.tcn.3.weight f4 [2]
0	0x3f89bd10	1.0760822
1	0x3f983398	1.1890745

flow.layers.0.block.0.tcn.3.bias f4 [2]
0	0x3e344c5f	0.17607258
1	0x3e14b779	0.14523114

flow.layers.0.block.0.tcn.3.running_mean f4 [2]
0	0x3e515ac7	0.20444785
1	0x3ef49597	0.47770378

flow.layers.0.block.0.tcn.3.running_var f4 [2]
0	0x3e13bf78	0.14428508
1	0x3e1cc1b1	0.15308262

flow.layers.1.actnorm.bias f4 [1, 2, 1, 1]
0	0x3e5f8a1e	0.21830031
1	0xbcf31362	-0.029672328

flow.layers.1.actnorm.logs f4 [1, 2, 1, 1]
0	0x3e0666bf	0.13125132
1	0xbd42f6cf	-0.047598656

flow.layers.1.block.0.gcn.conv.weight f4 [2, 1, 1, 1]
0	0x3ee5326c	0.4476503
1	0xbcffcc71	-0.031225415

flow.layers.1.block.0.gcn.conv.bias f4 [2]
0	0xbe3e6229	-0.18592133
1	0x3f666df4	0.90011525

flow.layers.1.block.0.tcn.0.weight f4 [2]
0	0x3f81d95d	1.0144459
1	0x3f7c378a	0.98522246

flow.layers.1.block.0.tcn.0.bias f4 [2]
0	0x3a549908	0.00081099616
1	0xbd143dc9	-0.036191735

flow.layers.1.block.0.tcn.0.running_mean f4 [2]
0	0x3d60ae43	0.05485369
1	0x3f620a46	0.88296926

flow.layers.1.block.0.tcn.0.running_var f4 [2]
0	0x3e05eef2	0.13079432
1	0x3a2ea8c4	0.0006662721

flow.layers.1.block.0.tcn.2.weight f4 [2, 2, 13, 1]
0	0x3dd0ed9b	0.1020157
1	0x3d1158ad	0.03548496
2	0x3e08ba61	0.13352348
3	0xbe49ca71	-0.19706132
4	0xbdcc0efa	-0.09963794
5	0xbd43c17c	-0.047791943
6	0xbe328208	-0.17432415
7	0xbd7189ea	-0.058969416
8	0xbd81e34e	-0.06342183
9	0x3b8e6d1e	0.004346504
10	0xbd142460	-0.036167502
11	0x3b4bd27c	0.00311008
12	0x3e066881	0.13125803
13	0xbe518b97	-0.20463406
14	0x3d1ab0f4	0.037766412
15	0x3e3942fd	0.1809196
16	0xbbfb4c28	-0.0076689906
17	0xbcc6f059	-0.024284529
18	0xbd7f841a	-0.06238184
19	0xbd14be3a	-0.036314227
20	0xbc93aa85	-0.018025646
21	0x3c78daf2	0.015188919
22	0xbe29f84d	-0.16598625
23	0xbcb6dd4a	-0.022322316
24	0x3e0617e5	0.13095053
25	0xbe095085	-0.13409622
26	0xbd0ea015	-0.034820635
27	0x3e19eff1	0.15032937
28	0xbdf4a857	-0.11946171
29	0xbbb71c2f	-0.0055880765
30	0xbd73c1d8	-0.059511036
31	0x3e24913e	0.1607103
32	0xbd2b32c8	-0.041796476
33	0xbe139ff6	-0.14416489
34	0x3d739b84	0.059474483
35	0xbda2b78c	-0.07945165
36	0xbda839e5	-0.082141675
37	0xbe3cb462	-0.18428186
38	0x3c7917f9	0.015203469
39	0x3e522b2e	0.20524284
40	0xbc029577	-0.0079702055
41	0x3d79cb07	0.060984638
42	0x3e67f6aa	0.22652689
43	0x3dc96252	0.09833206
44	0xbe0caa81	-0.13736917
45	0x3d566cfd	0.052350033
46	0xbe051364	-0.12995678
47	0x3bf3932b	0.0074333153
48	0xbdff39b6	-0.12462179
49	0x3e4700ad	0.19433852
50	0xbdce2651	-0.10065902
51	0x3d65e78b	0.05612902

flow.layers.1.block.0.tcn.2.bias f4 [2]
0	0xbda14211	-0.07873929
1	0x3dd270c6	0.10275416

flow.layers.1.block.0.tcn.3.weight f4 [2]
0	0x3f8ebcfd	1.1151425
1	0x3f911685	1.1334997

flow.layers.1.block.0.tcn.3.bias f4 [2]
0	0x3e500dff	0.20317839
1	0x3e33f474	0.1757372

flow.layers.1.block.0.tcn.3.running_mean f4 [2]
0	0xbe8d9088	-0.2764933
1	0x3db613c4	0.08890489

flow.layers.1.block.0.tcn.3.running_var f4 [2]
0	0x3dd60582	0.10450269
1	0x3dc34759	0.09535093

flow.layers.1.block.0.residual.0.weight f4 [2, 1, 1, 1]
0	0x3ce449e8	0.027867272
1	0x3f2d1cd9	0.67622143

flow.layers.1.block.0.residual.0.bias f4 [2]
0	0xbf36a4a3	-0.71344966
1	0xbe429a3e	-0.19004151

flow.layers.1.block.0.residual.1.weight f4 [2]
0	0x3f5955a4	0.848963
1	0x3f7196f7	0.9437098

flow.layers.1.block.0.residual.1.bias f4 [2]
0	0x3e500dff	0.20317839
1	0x3e33f474	0.1757372

flow.layers.1.block.0.residual.1.running_mean f4 [2]
0	0xbf326511	-0.69685465
1	0x3e31f0b6	0.1737698

flow.layers.1.block.0.residual.1.running_var f4 [2]
0	0x3ab4c992	0.0013792983
1	0x3f2af53f	0.66780466

flow.layers.2.actnorm.bias f4 [1, 2, 1, 1]
0	0x3e5baab0	0.21451831
1	0xbe350466	-0.17677459

flow.layers.2.actnorm.logs f4 [1, 2, 1, 1]
0	0x3d918af6	0.07106583
1	0x3d400315	0.04687794

flow.layers.2.block.0.gcn.conv.weight f4 [2, 1, 1, 1]
0	0x3eed27f0	0.46319532
1	0xbeb3d270	-0.3512149

flow.layers.2.block.0.gcn.conv.bias f4 [2]
0	0x3dabd1af	0.08389603
1	0xbf0d86ba	-0.552837

flow.layers.2.block.0.tcn.0.weight f4 [2]
0	0x3f6d13ea	0.9260851
1	0x3f884727	1.0646714

flow.layers.2.block.0.tcn.0.bias f4 [2]
0	0x3cb2173d	0.021739597
1	0x3deb6d9d	0.114955164

flow.layers.2.block.0.tcn.0.running_mean f4 [2]
0	0x3f04fbd2	0.5194675
1	0xbf61ce0e	-0.8820504

flow.layers.2.block.0.tcn.0.running_var f4 [2]
0	0x3e07038f	0.13184951
1	0x3d9a2af9	0.07527728

flow.layers.2.block.0.tcn.2.weight f4 [2, 2, 13, 1]
0	0x3dd7bbea	0.10533889
1	0xbdbb0681	-0.091321
2	0x3cfa8f3d	0.03058588
3	0xbe04b6a7	-0.12960301
4	0x3d181e12	0.037138052
5	0x3c8dd614	0.017313994
6	0xbe3b6549	-0.18300356
7	0x3c1b6f6b	0.009487013
8	0x3e0a6110	0.13513589
9	0x3e05c710	0.13064218
10	0x3de40b7c	0.11135003
11	0xbd5988cf	-0.053108986
12	0x3e4963d7	0.19666992
13	0x3dbb00e1	0.09131027
14	0xbe45ebb1	-0.1932819
15	0xbe47394c	-0.19455451
16	0xbd6380ec	-0.05554287
17	0xbe73a513	-0.2379344
18	0xbe690224	-0.22754723
19	0xbc29a048	-0.010353155
20	0x3c4eeac4	0.012629215
21	0xbc383d59	-0.011245095
22	0xbe2c7e62	-0.16845086
23	0xbd1b0a28	-0.037851483
24	0xbe0a2474	-0.13490468
25	0x3ce90216	0.028443377
26	0x3d6115ff	0.054952618
27	0xbe24773f	-0.16061114
28	0x3e038a6d	0.12845774
29	0xbba10694	-0.0049141143
30	0x3dbbeeaa	0.09176381
31	0x3dec3759	0.11533994
32	0x3db5f128	0.088838875
33	0x3df9203e	0.12164353
34	0x3d2d710e	0.042344145
35	0x3ddc0d1d	0.10744689
36	0x3dc7b402	0.09751131
37	0xbddb8599	-0.10718841
38	0xbe271307	-0.16315852
39	0xbd8501ff	-0.06494521
40	0xbd758a06	-0.059946083
41	0xbdee3b13	-0.11632361
42	0x3d16fa25	0.03685965
43	0x3e54a1b6	0.20764813
44	0x3d8d321c	0.06894323
45	0x3d045407	0.032306697
46	0x3e2f8220	0.17139482
47	0x3e8dfbff	0.2773132
48	0x3de4dac0	0.11174536
49	0x3dc9fd2e	0.09862743
50	0xbcfec8d9	-0.031101631
51	0x3e7bcc67	0.24589692

flow.layers.2.block.0.tcn.2.bias f4 [2]
0	0xbe374161	-0.17896034
1	0x3de5f1c7	0.11227756

flow.layers.2.block.0.tcn.3.weight f4 [2]
0	0x3f8ef777	1.116927
1	0x3f985a20	1.1902504

flow.layers.2.block.0.tcn.3.bias f4 [2]
0	0x3e57bd99	0.2106842
1	0x3e19571a	0.14974633

flow.layers.2.block.0.tcn.3.running_mean f4 [2]
0	0xbf0987b5	-0.537227
1	0x3f1b9375	0.60771877

flow.layers.2.block.0.tcn.3.running_var f4 [2]
0	0x3e974e9b	0.2955216
1	0x3e90e095	0.28296342

flow.layers.2.block.0.residual.0.weight f4 [2, 1, 1, 1]
0	0xbe940987	-0.2891352
1	0x3f4b270c	0.79356456

flow.layers.2.block.0.residual.0.bias f4 [2]
0	0xbea5f9d2	-0.3241716
1	0xbf257413	-0.6463024

flow.layers.2.block.0.residual.1.weight f4 [2]
0	0x3f8ea71d	1.1144749
1	0x3f590f2f	0.84788793

flow.layers.2.block.0.residual.1.bias f4 [2]
0	0x3e57bd99	0.2106842
1	0x3e19571a	0.14974633

flow.layers.2.block.0.residual.1.running_mean f4 [2]
0	0xbf187db6	-0.5956682
1	0x3dce4034	0.100708395

flow.layers.2.block.0.residual.1.running_var f4 [2]
0	0x3e1d0fde	0.15338084
1	0x3f94a272	1.1612074

flow.layers.3.actnorm.bias f4 [1, 2, 1, 1]
0	0x3e576a9c	0.21036762
1	0xbe7f4ed8	-0.2493242

flow.layers.3.actnorm.logs f4 [1, 2, 1, 1]
0	0x3e1493a0	0.1450944
1	0x3d15f53e	0.036610834

flow.layers.3.block.0.gcn.conv.weight f4 [2, 1, 1, 1]
0	0x3ce1b94a	0.027554173
1	0xbe7461d6	-0.23865446

flow.layers.3.block.0.gcn.conv.bias f4 [2]
0	0xbdccc512	-0.09998526
1	0xbe730590	-0.2373259

flow.layers.3.block.0.tcn.0.weight f4 [2]
0	0x3f7b95ae	0.9827527
1	0x3f819e40	1.0126419

flow.layers.3.block.0.tcn.0.bias f4 [2]
0	0x3cc93e0b	0.024565717
1	0x3dda6d77	0.1066541

flow.layers.3.block.0.tcn.0.running_mean f4 [2]
0	0xbd86ec4e	-0.0658804
1	0xbf094f85	-0.5363696

flow.layers.3.block.0.tcn.0.running_var f4 [2]
0	0x3a00c8db	0.00049127423
1	0x3d190c3e	0.03736519

flow.layers.3.block.0.tcn.2.weight f4 [2, 2, 13, 1]
0	0xbe2f3baa	-0.17112604
1	0x3debd3ff	0.115150444
2	0xbda1e85c	-0.07905647
3	0xbe50a546	-0.20375547
4	0x3db58936	0.088640615
5	0x3dee1b07	0.11626249
6	0xbe3fc09c	-0.18725818
7	0x3d96ed4f	0.07369482
8	0x3daf54a0	0.08561063
9	0xbe09a10f	-0.13440345
10	0x3caf2517	0.02137999
11	0xbe059d19	-0.13048209
12	0x3d66a377	0.056308236
13	0x3a8162fe	0.0009871421
14	0x3d07c026	0.03314223
15	0x3b83f95b	0.004027528
16	0xbce4271e	-0.027850684
17	0x3e2e52e7	0.17023812
18	0xbdd71f4f	-0.105040185
19	0x3b8810b6	0.0041523827
20	0x3e44f9c8	0.19235909
21	0x3d5f6951	0.054543797
22	0x3e2a9e83	0.1666203
23	0x3e85ea93	0.26155528
24	0x3de89ea6	0.11358385
25	0xbd5c1ee3	-0.053740393
26	0xbe12809c	-0.14306873
27	0x3b246db7	0.002508981
28	0xbc61fa27	-0.013792551
29	0xbdbeae4c	-0.09310588
30	0xbd9fd103	-0.07803538
31	0x3d3de288	0.046358615
32	0xbe5c8674	-0.21535665
33	0xbdde93fc	-0.108680695
34	0xbe324cc9	-0.17412104
35	0x3d55fd5b	0.05224357
36	0xbe0f1729	-0.13973679
37	0xbd4814c3	-0.048847925
38	0x3df1fad8	0.11815423
39	0x3dff20c3	0.12457421
40	0xbd82b202	-0.063816085
41	0x3d9fde63	0.07806089
42	0x3dfc7ad3	0.12328114
43	0xbc36682a	-0.011133233
44	0x3cfad6a7	0.030619932
45	0xbd01320f	-0.03154188
46	0xbd812daf	-0.063075416
47	0x3e165c07	0.14683543
48	0xbe03e9cc	-0.12882155
49	0x3ca527cd	0.02016058
50	0x3de83e2b	0.113399826
51	0x3d2ef4ee	0.042714052

flow.layers.3.block.0.tcn.2.bias f4 [2]
0	0x3c735ea1	0.014854104
1	0xbdfc0e7b	-0.123074494

flow.layers.3.block.0.tcn.3.weight f4 [2]
0	0x3f85b869	1.0446903
1	0x3f8d16e5	1.1022612

flow.layers.3.block.0.tcn.3.bias f4 [2]
0	0x3e414fab	0.18878047
1	0x3e108d8f	0.141165

flow.layers.3.block.0.tcn.3.running_mean f4 [2]
0	0x3e6625ae	0.22475311
1	0xbe86ddb8	-0.26341033

flow.layers.3.block.0.tcn.3.running_var f4 [2]
0	0x3e1b848c	0.15187281
1	0x3e405192	0.18781117

flow.layers.3.block.0.residual.0.weight f4 [2, 1, 1, 1]
0	0x3efa1fc3	0.48852357
1	0xbeab2db7	-0.33433315

flow.layers.3.block.0.residual.0.bias f4 [2]
0	0xbf18a2c3	-0.59623355
1	0xbf7a3387	-0.97734874

flow.layers.3.block.0.residual.1.weight f4 [2]
0	0x3f72b89d	0.9481295
1	0x3f9cd1ac	1.2251487

flow.layers.3.block.0.residual.1.bias f4 [2]
0	0x3e414fab	0.18878047
1	0x3e108d8f	0.141165

flow.layers.3.block.0.residual.1.running_mean f4 [2]
0	0x3c75b8e4	0.014997695
1	0xbfb28453	-1.3946632

flow.layers.3.block.0.residual.1.running_var f4 [2]
0	0x3eb8a5b2	0.36063915
1	0x3e2c3398	0.16816556

flow.layers.4.actnorm.bias f4 [1, 2, 1, 1]
0	0x3e504df0	0.20342231
1	0xbe236290	-0.15955567

flow.layers.4.actnorm.logs f4 [1, 2, 1, 1]
0	0x3df768ba	0.12080522
1	0xbc88e658	-0.016711399

flow.layers.4.block.0.gcn.conv.weight f4 [2, 1, 1, 1]
0	0xbdf6ca3b	-0.12050291
1	0x3e0ff75c	0.14059204

flow.layers.4.block.0.gcn.conv.bias f4 [2]
0	0xbe9c33c3	-0.3050824
1	0xbf100ad5	-0.5626653

flow.layers.4.block.0.tcn.0.weight f4 [2]
0	0x3f8b3726	1.0876205
1	0x3f67fe3b	0.906223

flow.layers.4.block.0.tcn.0.bias f4 [2]
0	0x3d897ca7	0.06713229
1	0xbd8dd444	-0.06925252

flow.layers.4.block.0.tcn.0.running_mean f4 [2]
0	0xbf01fda9	-0.5077768
1	0xbea5b104	-0.32361615

flow.layers.4.block.0.tcn.0.running_var f4 [2]
0	0x3c42c1c9	0.011887022
1	0x3c87396a	0.01650687

flow.layers.4.block.0.tcn.2.weight f4 [2, 2, 13, 1]
0	0x3cb74ae3	0.022374576
1	0xbe6efe26	-0.23339137
2	0xbe4488c1	-0.19192792
3	0xbe1e4c18	-0.15458715
4	0xbe26b2a2	-0.1627908
5	0xbe22ce68	-0.1589905
6	0xbe192a26	-0.14957485
7	0xbe765e28	-0.24059355
8	0x3d8baaff	0.06819724
9	0xbd3eb7b9	-0.04656193
10	0xbdab6984	-0.08369735
11	0x3db1f5aa	0.08689435
12	0x3d8062c9	0.06268842
13	0xbdf4476b	-0.119276844
14	0xbd347e7e	-0.044065945
15	0xbc88fa4a	-0.01672091
16	0x3e1b3f6f	0.15160917
17	0xbc0e7c68	-0.008696653
18	0xbd46e0a8	-0.048554093
19	0x3e02439b	0.12721102
20	0xbdc3f4c1	-0.095681675
21	0x3d44d10e	0.048050933
22	0xbe107fa6	-0.14111194
23	0xbe1298ef	-0.14316152
24	0xbe113eb8	-0.14184082
25	0xbdd624d2	-0.10456242
26	0xbc0dae34	-0.00864749
27	0x3c6eb50d	0.014569533
28	0xbdc36056	-0.09539859
29	0x3e0b6a5a	0.13614789
30	0x3de96285	0.11395744
31	0xbd9e2007	-0.077209525
32	0x3d8bc1af	0.068240516
33	0xbcd2283c	-0.02565395
34	0x3d963e81	0.073361404
35	0xbd64d66a	-0.055868544
36	0x3dcafa23	0.09910991
37	0xbc5a813e	-0.013336478
38	0x3d53a3cc	0.05166988
39	0x3dba6bc9	0.0910259
40	0x3d3a64ce	0.04550629
41	0xbe18f3f0	-0.14936805
42	0xbddebef0	-0.10876262
43	0xbea3e2c7	-0.32008955
44	0x3dd7fc7d	0.10546205
45	0xbe88948c	-0.26675832
46	0xbe4629cf	-0.19351886
47	0xbe00211d	-0.12512632
48	0xbd96087d	-0.07325838
49	0xbe63ecea	-0.22258344
50	0xbe156512	-0.14589337
51	0x3e014f1d	0.12627836

flow.layers.4.block.0.tcn.2.bias f4 [2]
0	0x3d5ee70e	0.05441957
1	0x3df9daeb	0.121999584

flow.layers.4.block.0.tcn.3.weight f4 [2]
0	0x3f914bf0	1.1351299
1	0x3f99d774	1.2018876

flow.layers.4.block.0.tcn.3.bias f4 [2]
0	0x3e440481	0.19142343
1	0x3e3b549e	0.18293998

flow.layers.4.block.0.tcn.3.running_mean f4 [2]
0	0xbf01c9cf	-0.5069856
1	0xbde88862	-0.11354138

flow.layers.4.block.0.tcn.3.running_var f4 [2]
0	0x3ece5c20	0.4030466
1	0x3e8abe3d	0.27098265

flow.layers.4.block.0.residual.0.weight f4 [2, 1, 1, 1]
0	0x3d4c5d5a	0.049893714
1	0xbf1a5693	-0.6028835

flow.layers.4.block.0.residual.0.bias f4 [2]
0	0x3eea28d1	0.45734265
1	0xbec746a5	-0.38921085

flow.layers.4.block.0.residual.1.weight f4 [2]
0	0x3f4c8e33	0.7990448
1	0x3f869c29	1.0516406

flow.layers.4.block.0.residual.1.bias f4 [2]
0	0x3e440481	0.19142343
1	0x3e3b549e	0.18293998

flow.layers.4.block.0.residual.1.running_mean f4 [2]
0	0x3f0c35eb	0.5476977
1	0xbfb42267	-1.4072999

flow.layers.4.block.0.residual.1.running_var f4 [2]
0	0x3bc19172	0.005907231
1	0x3f436363	0.7632353

flow.layers.5.actnorm.bias f4 [1, 2, 1, 1]
0	0x3e4dc69b	0.20095293
1	0xbe7a6d4a	-0.24455753

flow.layers.5.actnorm.logs f4 [1, 2, 1, 1]
0	0x3e18eb57	0.14933525
1	0xbe389c58	-0.1802839

flow.layers.5.block.0.gcn.conv.weight f4 [2, 1, 1, 1]
0	0x3f7608dd	0.96107274
1	0x3de18340	0.11011362

flow.layers.5.block.0.gcn.conv.bias f4 [2]
0	0xbf08bc5a	-0.534124
1	0xbf778986	-0.9669422

flow.layers.5.block.0.tcn.0.weight f4 [2]
0	0x3f82773e	1.019264
1	0x3f7b35e3	0.981291

flow.layers.5.block.0.tcn.0.bias f4 [2]
0	0x3d24b3a0	0.040210366
1	0x3c1b18ee	0.009466393

flow.layers.5.block.0.tcn.0.running_mean f4 [2]
0	0x3f8e9cee	1.1141641
1	0xbf4722ab	-0.77787274

flow.layers.5.block.0.tcn.0.running_var f4 [2]
0	0x3ed939fc	0.4242705
1	0x3bb704db	0.0055852956

flow.layers.5.block.0.tcn.2.weight f4 [2, 2, 13, 1]
0	0xbe339704	-0.17538077
1	0xbe5089b9	-0.20365037
2	0x3d6c424b	0.05768041
3	0x3e190a0c	0.14945239
4	0x3e1463ba	0.14491168
5	0x3e0a165e	0.13485095
6	0x3d2524c0	0.04031825
7	0xbe1fa120	-0.15588808
8	0xbcafd665	-0.021464536
9	0xbe0fcbcc	-0.14042586
10	0x3dd1faff	0.10252952
11	0x3d96df16	0.07366769
12	0xbe3a2ba6	-0.18180713
13	0xbe4d7df9	-0.20067586
14	0x3d37a017	0.044830408
15	0x3b18f189	0.0023337326
16	0x3d1a3ac6	0.037653707
17	0xbdc1c2ba	-0.09460969
18	0xbdc6e067	-0.0971077
19	0xbdb6a03a	-0.089172795
20	0xbde09e1b	-0.10967656
21	0xbbfb43d0	-0.007667996
22	0x3d907cda	0.070550635
23	0xbe3facf4	-0.1871832
24	0x3d084cf3	0.03327651
25	0x3dcce31e	0.10004257
26	0xbe0a3eaf	-0.13500474
27	0xbd1ea395	-0.038730223
28	0x3d4b5e36	0.049650393
29	0xbdbeca57	-0.09315937
30	0xbcdf05eb	-0.027224502
31	0x3e0202b2	0.1269634
32	0x3dc224e4	0.094796926
33	0x3d7dd841	0.061973814
34	0xbe2ef2ee	-0.17084858
35	0x3d9756bc	0.0738959
36	0x3e37ccb4	0.17949182
37	0xbe763e4a	-0.24047199
38	0xbe2382e6	-0.15967903
39	0x3bba2b34	0.0056814197
40	0xbe76d36e	-0.24104092
41	0x3d0d31a3	0.034471165
42	0x3cec3964	0.02883596
43	0x3d815f51	0.06317008
44	0x3bc44a73	0.0059903204
45	0x3c47ac1f	0.012187033
46	0x3df4b1ab	0.1194795
47	0x3e3d8a7c	0.18509859
48	0xbcdb8325	-0.026795933
49	0x3e40d1e3	0.18830065
50	0xbe985421	-0.29751685
51	0x3d6be51d	0.057591546

flow.layers.5.block.0.tcn.2.bias f4 [2]
0	0xbe37ab33	-0.17936401
1	0xbe4a086d	-0.19729777

flow.layers.5.block.0.tcn.3.weight f4 [2]
0	0x3f9227a0	1.1418343
1	0x3f857c96	1.0428646

flow.layers.5.block.0.tcn.3.bias f4 [2]
0	0x3e330d5a	0.17485562
1	0x3e54fd37	0.20799719

flow.layers.5.block.0.tcn.3.running_mean f4 [2]
0	0xbebea511	-0.3723531
1	0xbe52c8d1	-0.20584418

flow.layers.5.block.0.tcn.3.running_var f4 [2]
0	0x3e1214b4	0.1426571
1	0x3e4eba27	0.20188199

flow.layers.5.block.0.residual.0.weight f4 [2, 1, 1, 1]
0	0x39f07df2	0.00045870204
1	0xbd64cb7c	-0.05585812

flow.layers.5.block.0.residual.0.bias f4 [2]
0	0xbf25eb6e	-0.6481236
1	0x3e59c0da	0.21264973

flow.layers.5.block.0.residual.1.weight f4 [2]
0	0x3f789471	0.97101504
1	0x3f84328d	1.0327927

flow.layers.5.block.0.residual.1.bias f4 [2]
0	0x3e330d5a	0.17485562
1	0x3e54fd37	0.20799719

flow.layers.5.block.0.residual.1.running_mean f4 [2]
0	0xbf25b797	-0.6473326
1	0x3deec3cb	0.11658438

flow.layers.5.block.0.residual.1.running_var f4 [2]
0	0x3490759f	2.690767e-07
1	0x3b8463c4	0.0040402133

flow.layers.6.actnorm.bias f4 [1, 2, 1, 1]
0	0x3e355d6c	0.17711419
1	0xbe4561b0	-0.19275546

flow.layers.6.actnorm.logs f4 [1, 2, 1, 1]
0	0x3da8aa7e	0.08235644
1	0xbe81ec3e	-0.2537555

flow.layers.6.block.0.gcn.conv.weight f4 [2, 1, 1, 1]
0	0xbcebc6e2	-0.028781358
1	0xbea7081e	-0.3262338

flow.layers.6.block.0.gcn.conv.bias f4 [2]
0	0xbf1e48a2	-0.6182958
1	0xbd1216a8	-0.035666138

flow.layers.6.block.0.tcn.0.weight f4 [2]
0	0x3f856953	1.0422767
1	0x3f71e72c	0.94493365

flow.layers.6.block.0.tcn.0.bias f4 [2]
0	0xbdbcd94b	-0.09221133
1	0xbdea518f	-0.11441337

flow.layers.6.block.0.tcn.0.running_mean f4 [2]
0	0xbf2bffd9	-0.6718727
1	0xbf24dd4e	-0.64400184

flow.layers.6.block.0.tcn.0.running_var f4 [2]
0	0x3a18f9ea	0.000583558
1	0x3d9a20b1	0.07525767

flow.layers.6.block.0.tcn.2.weight f4 [2, 2, 13, 1]
0	0xbe10a36e	-0.14124843
1	0xbad81be9	-0.001648781
2	0x3d86aa61	0.06575466
3	0xbd66992d	-0.056298424
4	0x3e49a764	0.1969276
5	0x3c3574b8	0.011075191
6	0xbcb46791	-0.02202204
7	0xbe081186	-0.13287935
8	0xbe1b305f	-0.15155171
9	0xbddc100c	-0.10745248
10	0x3da77f69	0.081785984
11	0xbe22fb25	-0.15916117
12	0xbe95d857	-0.29266617
13	0x3e4485e0	0.19191694
14	0x3c69e8bc	0.01427668
15	0x3d2d5deb	0.042325895
16	0x3c28f55b	0.010312404
17	0xbdc6ced3	-0.09707417
18	0x3c1e3fa0	0.009658724
19	0xbdc826cd	-0.09773026
20	0x3e24890b	0.16067903
21	0x3df997ad	0.12187133
22	0xbe5827ae	-0.21108887
23	0x3db9b683	0.090680145
24	0xbe3c670f	-0.18398689
25	0xbe4dd22f	-0.2009971
26	0x3ddc931b	0.10770246
27	0x3d802a75	0.06258098
28	0x3dec240b	0.11530312
29	0x3dddb6bf	0.10825872
30	0x3dad3399	0.08457107
31	0xbddb2799	-0.10700912
32	0x3c2adf69	0.010429242
33	0x3de00cff	0.10939979
34	0x3b9e4687	0.004830185
35	0x3dd975f7	0.10618203
36	0xbe0cca99	-0.1374916
37	0xbda08bfa	-0.078391984
38	0xbe01a3b9	-0.12660111
39	0xbd8d6af0	-0.06905162
40	0xbd98f86c	-0.07469258
41	0xbd2c9204	-0.04213144
42	0x3d95a893	0.073075436
43	0xbe18ad7e	-0.14909932
44	0xbe106e97	-0.14104687
45	0xbe294b36	-0.16532597
46	0xbe14c4c6	-0.14528188
47	0x3e298eac	0.16558331
48	0xbddaf260	-0.106907606
49	0xbdf3ab88	-0.11897951
50	0xbbe6e561	-0.007046387
51	0xbdc33865	-0.09532241

flow.layers.6.block.0.tcn.2.bias f4 [2]
0	0xbe1c50ec	-0.15265244
1	0x3cd363d2	0.025804434

flow.layers.6.block.0.tcn.3.weight f4 [2]
0	0x3f917782	1.1364596
1	0x3f926cd2	1.1439459

flow.layers.6.block.0.tcn.3.bias f4 [2]
0	0x3e3d8a76	0.1850985
1	0x3e3a704c	0.182069

flow.layers.6.block.0.tcn.3.running_mean f4 [2]
0	0xbec87eae	-0.3915915
1	0xbe07e94c	-0.1327259

flow.layers.6.block.0.tcn.3.running_var f4 [2]
0	0x3e50c229	0.20386566
1	0x3dcd5318	0.100256145

flow.layers.6.block.0.residual.0.weight f4 [2, 1, 1, 1]
0	0xbf7e26c8	-0.99277925
1	0xbad8c6f4	-0.0016538785

flow.layers.6.block.0.residual.0.bias f4 [2]
0	0xbf4ce824	-0.8004172
1	0x3f356b60	0.70866966

flow.layers.6.block.0.residual.1.weight f4 [2]
0	0x3f8e6d5e	1.1127126
1	0x3f580786	0.8438648

flow.layers.6.block.0.residual.1.bias f4 [2]
0	0x3e3d8a76	0.1850985
1	0x3e3a704c	0.182069

flow.layers.6.block.0.residual.1.running_mean f4 [2]
0	0xc029977d	-2.649871
1	0x3f34ae1b	0.70578164

flow.layers.6.block.0.residual.1.running_var f4 [2]
0	0x3fc7be69	1.5604984
1	0x369234b1	4.357273e-06

flow.layers.7.actnorm.bias f4 [1, 2, 1, 1]
0	0x3e355024	0.17706352
1	0xbe8ab2a4	-0.27089417

flow.layers.7.actnorm.logs f4 [1, 2, 1, 1]
0	0x3e0afe86	0.13573655
1	0x3e335261	0.17511894

flow.layers.7.block.0.gcn.conv.weight f4 [2, 1, 1, 1]
0	0xbe8ce649	-0.27519444
1	0xbf519e53	-0.8188221

flow.layers.7.block.0.gcn.conv.bias f4 [2]
0	0xbf495c9e	-0.7865695
1	0xbeb29d88	-0.34885812

flow.layers.7.block.0.tcn.0.weight f4 [2]
0	0x3f74652d	0.9546688
1	0x3f85bb23	1.0447735

flow.layers.7.block.0.tcn.0.bias f4 [2]
0	0xbbb2780a	-0.0054464387
1	0xbd0b0308	-0.033938438

flow.layers.7.block.0.tcn.0.running_mean f4 [2]
0	0xbfc7e65b	-1.5617174
1	0xc029c20b	-2.6524684

flow.layers.7.block.0.tcn.0.running_var f4 [2]
0	0x3d27a0f0	0.040924966
1	0x3eb91c63	0.3615447

flow.layers.7.block.0.tcn.2.weight f4 [2, 2, 13, 1]
0	0x3dd0c556	0.10193889
1	0x3e77f92e	0.24216148
2	0xbdf55fff	-0.119812004
3	0xbbb2b7fe	-0.0054540625
4	0xbcfd0804	-0.030887611
5	0x3da86e40	0.082241535
6	0x3d3fbf70	0.04681343
7	0xbe3bcb07	-0.18339168
8	0xbdb27628	-0.08713943
9	0xbcd9085b	-0.026493242
10	0x3d9b3a3d	0.075794674
11	0xbd9a0d0b	-0.07522019
12	0x3c4ba83d	0.012430248
13	0xbe08564c	-0.1331417
14	0xbdf80d75	-0.12111942
15	0x3e182f9a	0.14861909
16	0x3e252de8	0.16130793
17	0x3d928060	0.07153392
18	0xbce4ce63	-0.027930444
19	0xbe603153	-0.21893816
20	0x3d331a02	0.043725975
21	0xbd965599	-0.07340545
22	0xbe3b7e27	-0.18309842
23	0xbe349573	-0.17635135
24	0xbd837ac8	-0.06419903
25	0x3d2844a2	0.04108108
26	0x3bdba95c	0.006703539
27	0xbe606a57	-0.21915565
28	0xbadfc114	-0.0017071092
29	0xbded900f	-0.115997426
30	0x3dff6d4c	0.124720186
31	0xbc9c70e1	-0.019096794
32	0xbd2f2c0a	-0.04276661
33	0x3db2cdb9	0.08730645
34	0x3c67bf14	0.014144678
35	0x3e304384	0.17213255
36	0x3e2f96f7	0.17147432
37	0xbe69d1d8	-0.22833955
38	0x3dee1676	0.11625378
39	0xbe3eb96f	-0.18625425
40	0xbe44e90a	-0.19229522
41	0x3db5b1c6	0.08871798
42	0x3dfdf658	0.12400502
43	0xbbd92ce3	-0.0066276654
44	0x3dfb1c76	0.12261288
45	0x3e091062	0.13385156
46	0xbe86ff72	-0.26366764
47	0x3df043c8	0.11731678
48	0x3c834025	0.016021797
49	0xbde23996	-0.1104614
50	0x3e10911d	0.14117856
51	0xbc8ccc88	-0.017187372

flow.layers.7.block.0.tcn.2.bias f4 [2]
0	0x3dbaebc5	0.09127001
1	0xbe094ece	-0.13408968

flow.layers.7.block.0.tcn.3.weight f4 [2]
0	0x3f8ef495	1.116839
1	0x3f8ed573	1.115889

flow.layers.7.block.0.tcn.3.bias f4 [2]
0	0x3e295fb9	0.16540422
1	0x3e35235c	0.1768927

flow.layers.7.block.0.tcn.3.running_mean f4 [2]
0	0xbdae75d8	-0.08518571
1	0xbddc853d	-0.10767601

flow.layers.7.block.0.tcn.3.running_var f4 [2]
0	0x3dbf5900	0.09343147
1	0x3dad8e99	0.08474464

flow.layers.7.block.0.residual.0.weight f4 [2, 1, 1, 1]
0	0x3f100c79	0.5626903
1	0xbf639286	-0.8889545

flow.layers.7.block.0.residual.0.bias f4 [2]
0	0xbf2b79d5	-0.66982776
1	0xbe836001	-0.25659183

flow.layers.7.block.0.residual.1.weight f4 [2]
0	0x3f59c11c	0.85060287
1	0x3f97ea5e	1.1868398

flow.layers.7.block.0.residual.1.bias f4 [2]
0	0x3e295fb9	0.16540422
1	0x3e35235c	0.1768927

flow.layers.7.block.0.residual.1.running_mean f4 [2]
0	0x3f6c23b8	0.92242
1	0xc0305006	-2.7548842

flow.layers.7.block.0.residual.1.running_var f4 [2]
0	0x3f10e82e	0.5660428
1	0x3fb28233	1.3945984

exp_avg f4 [1, 2, 1, 1]
0	0xbda83242	-0.08212711
1	0xbdc1ecae	-0.09468971

exp_inf f4 [1, 2, 1, 1]
0	0x3eceb16c	0.40369737
1	0x3f03f273	0.51541823

exp_avg f4 [1, 2, 1, 1]
0	0x3e051a53	0.12998323
1	0xbc811bf2	-0.015760396

exp_inf f4 [1, 2, 1, 1]
0	0x3f69658d	0.9117058
1	0x3f112a0a	0.5670477

exp_avg f4 [2, 1, 1, 1]
0	0x35f8e78e	1.8544831e-06
1	0xbe79b4b4	-0.24385339

exp_inf f4 [2, 1, 1, 1]
0	0x388102e6	6.151739e-05
1	0x418a5e8e	17.29617

exp_avg f4 [2]
0	0x31b33ed2	5.2167275e-09
1	0x36a158c2	4.8085067e-06

exp_inf f4 [2]
0	0x343acf53	1.7398024e-07
1	0x38b4702b	8.603962e-05

exp_avg f4 [2]
0	0xbb084ba7	-0.0020797045
1	0x3ab4222a	0.0013743092

exp_inf f4 [2]
0	0x3d951e4a	0.07281168
1	0x3d8c125b	0.068394385

exp_avg f4 [2]
0	0x3c428521	0.011872561
1	0xbbdbbcbe	-0.0067058494

exp_inf f4 [2]
0	0x3e048c6d	0.12944193
1	0x3e1a29cc	0.15055007

exp_avg f4 [2, 2, 13, 1]
0	0x3c982cde	0.018576082
1	0x3c8cd3f3	0.017190909
2	0x3ca6bfef	0.020355193
3	0x3d0c2111	0.034211222
4	0xbce80007	-0.028320326
5	0xbd7c4176	-0.061585866
6	0xbda0009f	-0.078126185
7	0xbc3611d4	-0.011112649
8	0xbbd79ed1	-0.0065802117
9	0xbdba8e5f	-0.091091864
10	0xbd0f1c65	-0.03493919
11	0xbcfe4733	-0.03103981
12	0xbc525f88	-0.012840159
13	0x3c22ad91	0.009929077
14	0x3c1a3510	0.009412065
15	0x3c3e4267	0.011612511
16	0x3ca1d627	0.019755436
17	0xbc84c5bc	-0.016207568
18	0xbd100dea	-0.03516952
19	0xbd3793bd	-0.04481863
20	0xbbc80348	-0.006103907
21	0xbb7ea923	-0.0038858138
22	0xbd574295	-0.052553732
23	0xbca35dfb	-0.019942274
24	0xbc92f42f	-0.017938701
25	0xbbf30dee	-0.007417432
26	0xbb814a7d	-0.0039456473
27	0xbb956268	-0.00455885
28	0xb95366df	-0.0002016085
29	0xb9eadca8	-0.0004479636
30	0xbb5ebd90	-0.00339875
31	0x39ffc0b8	0.00048780977
32	0xbb10f3f7	-0.002211807
33	0xbaa0c8ab	-0.0012266835
34	0x3a368538	0.00069626
35	0xbad67c3c	-0.0016363929
36	0xba7f4d17	-0.00097389653
37	0x3a732f79	0.00092767883
38	0x3c30e26e	0.010796173
39	0xbb16a152	-0.0022984338
40	0xbb2c63e5	-0.002630466
41	0xb8d53f05	-0.0001016837
42	0xb980e69b	-0.00024585877
43	0xbaff939f	-0.001949895
44	0x39a9bd3f	0.0003237519
45	0xbaa16475	-0.0012313264
46	0xba2ea4bd	-0.0006662121
47	0x39ddd1cd	0.0004230872
48	0xba7173f5	-0.00092106994
49	0xba08dace	-0.0005220593
50	0x3a13c009	0.00056362204
51	0x3bcab478	0.0061860643

exp_inf f4 [2, 2, 13, 1]
0	0x3ee206bb	0.4414576
1	0x3eadabf4	0.33920252
2	0x3ead294e	0.33820575
3	0x3ec1afe5	0.3782951
4	0x3ec9e1ec	0.39430177
5	0x3e9b8f3e	0.30382723
6	0x3ec9dd93	0.3942686
7	0x3f14725e	0.5798701
8	0x3eb7c845	0.3589498
9	0x3ed2250a	0.41043884
10	0x3eae6697	0.34062645
11	0x3ec4aa3d	0.38411132
12	0x3eaaaaa5	0.33333316
13	0x3ec43e7a	0.38328916
14	0x3e99ac80	0.3001442
15	0x3ea1571c	0.31511772
16	0x3ea79e76	0.32738084
17	0x3e9774c1	0.29581264
18	0x3e99f513	0.3006979
19	0x3ebd00fd	0.36914816
20	0x3f11b15c	0.56911254
21	0x3eb5be9e	0.35496992
22	0x3eb24209	0.34816006
23	0x3eab79ad	0.3349127
24	0x3ebf3d83	0.37351617
25	0x3ea82492	0.328404
26	0x3d122a80	0.035685062
27	0x3d0739c6	0.03301408
28	0x3d092b7c	0.033488736
29	0x3d220e0f	0.03956419
30	0x3cf9599c	0.030438237
31	0x3ceda046	0.029007088
32	0x3d3e03b8	0.046390265
33	0x3db9a2e5	0.09064273
34	0x3d8ae295	0.06781498
35	0x3d3d4565	0.046208758
36	0x3d136e6c	0.03599398
37	0x3d114cf9	0.035473797
38	0x3d3e3c88	0.046444446
39	0x3d0df76d	0.03465979
40	0x3d033d0d	0.032040644
41	0x3d0516d5	0.032492477
42	0x3cfe93a9	0.03107627
43	0x3cf5a18b	0.029984256
44	0x3cea0328	0.028565958
45	0x3d39277f	0.045203682
46	0x3d70643c	0.05868934
47	0x3d401d06	0.04690268
48	0x3d05d8c3	0.032677423
49	0x3cda1a9f	0.026624022
50	0x3d0dc841	0.034614805
51	0x3d3bdc39	0.045864318

exp_avg f4 [2]
0	0xb17d7746	-3.6884145e-09
1	0x2ffd8ed5	4.612192e-10

exp_inf f4 [2]
0	0x33e720e8	1.0762761e-07
1	0x32b9b746	2.1620178e-08

exp_avg f4 [2]
0	0xbc8f2432	-0.017473314
1	0xbb816cac	-0.0039497223

exp_inf f4 [2]
0	0x3e9bc0f3	0.30420646
1	0x3c15ae4f	0.009135797

exp_avg f4 [2]
0	0xbd67034f	-0.05639964
1	0xba11f212	-0.00055673823

exp_inf f4 [2]
0	0x3e976aa7	0.29573557
1	0x3cf5ae5a	0.029990364

exp_avg f4 [1, 2, 1, 1]
0	0xbdad6e59	-0.08468313
1	0xbe09cce2	-0.13457063

exp_inf f4 [1, 2, 1, 1]
0	0x3ef63f02	0.48094946
1	0x3f290506	0.6602329

exp_avg f4 [1, 2, 1, 1]
0	0xbd0f80e1	-0.035035018
1	0x3dd7f2d1	0.105443604

exp_inf f4 [1, 2, 1, 1]
0	0x3f113147	0.56715816
1	0x3f6e2cbb	0.93037003

exp_avg f4 [2, 1, 1, 1]
0	0xb6000d8d	-1.9081374e-06
1	0xbbb1797f	-0.005416095

exp_inf f4 [2, 1, 1, 1]
0	0x384a5fd4	4.82498e-05
1	0x3d010f9e	0.031509034

exp_avg f4 [2]
0	0x31b2793c	5.1942646e-09
1	0x342ebc23	1.6273457e-07

exp_inf f4 [2]
0	0x336af31e	5.4703484e-08
1	0x372cfa36	1.0310256e-05

exp_avg f4 [2]
0	0xbc351dd6	-0.011054477
1	0x3c400b35	0.011721422

exp_inf f4 [2]
0	0x3e5e1344	0.21687037
1	0x3e5ec39e	0.2175431

exp_avg f4 [2]
0	0x3b1d891c	0.0024038022
1	0x3c1e7d72	0.009673463

exp_inf f4 [2]
0	0x3dc5653c	0.096384495
1	0x3d603bc2	0.05474449

exp_avg f4 [2, 2, 13, 1]
0	0xbd904030	-0.07043493
1	0x3c45ddb2	0.012076782
2	0xbb98029d	-0.0046389834
3	0xbca28fd8	-0.01984398
4	0xbaeb2bb9	-0.0017942108
5	0x3cb75704	0.02238036
6	0x3cd784e6	0.026308488
7	0x3ccc4665	0.02493591
8	0x3d3a9187	0.045548942
9	0xbc73dd75	-0.014884342
10	0x3c81c640	0.015841603
11	0xbc3e53e5	-0.011616682
12	0x3cd9d02f	0.026588527
13	0x3cf4987f	0.029857872
14	0x3d209767	0.03920689
15	0x3d9e1bd3	0.07720151
16	0x3b8b93de	0.0042595705
17	0x3c9ad8ff	0.0189023
18	0x3ca63ded	0.0202932
19	0x3c3cd86c	0.011526208
20	0x3cdcebe0	0.026967943
21	0x3c556780	0.013025165
22	0x3bf51f08	0.007480506
23	0xbcc25a37	-0.023724658
24	0x3c35b823	0.011091265
25	0xbca4ccdf	-0.020117221
26	0xbbb5ccc1	-0.00554809
27	0xbbc15a20	-0.0059006363
28	0xbc05d2c1	-0.008167923
29	0xbc1ca5e0	-0.009561032
30	0xbc265bc7	-0.010153717
31	0xbc42d74f	-0.011892154
32	0xbc1b1cdf	-0.009467333
33	0xbba034b0	-0.0048890933
34	0xbbd2efb1	-0.006437265
35	0xba610e58	-0.0008585206
36	0x3abaf259	0.0014262899
37	0x3b781cdc	0.0037858998
38	0x3c06fc5d	0.008238879
39	0x3b60a34e	0.0034277025
40	0x3b93b6f8	0.0045078956
41	0x3bc94449	0.0061421734
42	0x3a8f5a33	0.0010936916
43	0x3aceb83e	0.0015771461
44	0x3acea9c8	0.0015767151
45	0x3afbe86c	0.0019219047
46	0x3a4d8c88	0.000784107
47	0xb91ea47c	-0.0001512933
48	0xbb3e2bd5	-0.0029017825
49	0xbb8a66a4	-0.0042236615
50	0xbae8d145	-0.0017762562
51	0xbb776317	-0.003774827

exp_inf f4 [2, 2, 13, 1]
0	0x3f10001d	0.5625017
1	0x3f258192	0.64650834
2	0x3f95cf16	1.1703823
3	0x3e87306e	0.26404136
4	0x3f05550b	0.5208289
5	0x3f456d26	0.7711967
6	0x3f7efafa	0.9960171
7	0x3f0f3812	0.5594493
8	0x3efde07d	0.49585333
9	0x3f51e5d6	0.81991327
10	0x3f1397ec	0.5765369
11	0x3e840ab0	0.25789404
12	0x3f4f2c48	0.8092694
13	0x3e8197f4	0.25311244
14	0x3f2eebb0	0.6832838
15	0x3f80e24f	1.0069064
16	0x3e0db836	0.13839802
17	0x3e23900e	0.15972921
18	0x3e42834a	0.18995395
19	0x3e1beff5	0.15228255
20	0x3e3ada69	0.1824738
21	0x3e377c89	0.179186
22	0x3df570b7	0.11984389
23	0x3e653e8b	0.2238714
24	0x3e8d2f50	0.2757516
25	0x3e48841e	0.19581649
26	0x3cfedf77	0.031112416
27	0x3d20260a	0.039098777
28	0x3d2b6c55	0.04185136
29	0x3ccf654a	0.025316853
30	0x3cd23f49	0.025664942
31	0x3cfa6abb	0.030568471
32	0x3d52e539	0.051488135
33	0x3cc9739c	0.02459126
34	0x3cc9ac56	0.024618309
35	0x3d0eda8a	0.034876384
36	0x3cb8b915	0.022549191
37	0x3c31e165	0.010856961
38	0x3d623314	0.055224493
39	0x3c1d4d56	0.009600958
40	0x3d4079cd	0.04699116
41	0x3c56a5b4	0.01310103
42	0x3c085bae	0.008322639
43	0x3c0dca12	0.008654134
44	0x3c2e2bf4	0.010630596
45	0x3c2ca0df	0.0105364015
46	0x3c69c9a5	0.014269267
47	0x3c568cdd	0.013095108
48	0x3c8c7a7c	0.017148249
49	0x3c8fbebc	0.017547004
50	0x3c9147bb	0.017734399
51	0x3c2d133f	0.010563671

exp_avg f4 [2]
0	0x31846531	3.8532098e-09
1	0xaf56f444	-1.9549967e-10

exp_inf f4 [2]
0	0x340d7c9c	1.3176981e-07
1	0x32a66711	1.9371813e-08

exp_avg f4 [2]
0	0x3c6aa8c9	0.014322468
1	0x3a50fecf	0.000797254

exp_inf f4 [2]
0	0x3deff6b4	0.11716977
1	0x3c5f3122	0.013622554

exp_avg f4 [2]
0	0xbd8641a6	-0.0655549
1	0xbbb2af62	-0.005453036

exp_inf f4 [2]
0	0x3ea70c70	0.32626677
1	0x3cfeae48	0.031088963

exp_avg f4 [2, 1, 1, 1]
0	0x3c691e00	0.014228344
1	0x329131ef	1.6902929e-08

exp_inf f4 [2, 1, 1, 1]
0	0x3ccfa1b0	0.025345653
1	0x348c2b29	2.6108435e-07

exp_avg f4 [2]
0	0x344127b5	1.7988971e-07
1	0x2c8f12e8	4.0664035e-12

exp_inf f4 [2]
0	0x365d6bf8	3.2994412e-06
1	0x325f074b	1.2981967e-08

exp_avg f4 [2]
0	0x3d87cce8	0.0663088
1	0x3a831b8d	0.0010002718

exp_inf f4 [2]
0	0x3df0f0f8	0.11764711
1	0x3c165647	0.009175844

exp_avg f4 [2]
0	0xbd8641a6	-0.0655549
1	0xbbb2af62	-0.005453036

exp_inf f4 [2]
0	0x3ea70c70	0.32626677
1	0x3cfeae48	0.031088963

exp_avg f4 [1, 2, 1, 1]
0	0xbe107c77	-0.1410998
1	0xbda917d3	-0.08256497

exp_inf f4 [1, 2, 1, 1]
0	0x3f2f419d	0.6845949
1	0x3efbc9c5	0.49177375

exp_avg f4 [1, 2, 1, 1]
0	0x3d98fff0	0.07470691
1	0x3cd18c02	0.025579456

exp_inf f4 [1, 2, 1, 1]
0	0x3f64769f	0.892435
1	0x3ef9371d	0.4867486

exp_avg f4 [2, 1, 1, 1]
0	0x3667a650	3.451849e-06
1	0x36f07dfc	7.167224e-06

exp_inf f4 [2, 1, 1, 1]
0	0x37867c68	1.6031976e-05
1	0x388fc28d	6.855009e-05

exp_avg f4 [2]
0	0xb0b91e7c	-1.3469186e-09
1	0x3103345b	1.909277e-09

exp_inf f4 [2]
0	0x3325d667	3.8612054e-08
1	0x3392e9d4	6.841188e-08

exp_avg f4 [2]
0	0x3cb7e43a	0.022447694
1	0xbc8fb89b	-0.017544081

exp_inf f4 [2]
0	0x3d8ea07b	0.06964203
1	0x3d8ca86c	0.068680614

exp_avg f4 [2]
0	0x3c11036f	0.008850916
1	0xbca8a84b	-0.02058806

exp_inf f4 [2]
0	0x3d8ed28c	0.069737524
1	0x3dcacd2b	0.09902414

exp_avg f4 [2, 2, 13, 1]
0	0x3c1f39df	0.009718387
1	0xbd601f19	-0.054717157
2	0xbcdd77f0	-0.02703473
3	0xbd043b6e	-0.03228324
4	0x3c91b624	0.017787047
5	0xbd816bd0	-0.06319392
6	0xbd7ef70e	-0.06224733
7	0xbd0ab3a3	-0.03386272
8	0x3c2c733e	0.010525523
9	0x3a0c3891	0.0005349005
10	0x3d4a886f	0.04944652
11	0x3c177c98	0.009246014
12	0xbcf29dac	-0.0296162
13	0x3ccc8d7d	0.02496981
14	0x3c546a82	0.012964847
15	0x3d2f718d	0.0428329
16	0x3d81bb44	0.06334546
17	0x3cfbe467	0.03074856
18	0x3cdc22a3	0.026871985
19	0x3d60fd97	0.054929342
20	0x3cd7a673	0.026324486
21	0x3c0215d2	0.007939773
22	0xbc319097	-0.010837696
23	0xbb0dd63c	-0.0021642586
24	0xbcac773b	-0.021052947
25	0xbb8b6a18	-0.0042545907
26	0x3abe9fbd	0.0014543455
27	0xba45e2f8	-0.00075487746
28	0xbad3763a	-0.0016133257
29	0xbb50a953	-0.0031839206
30	0x3b03c0bc	0.0020103892
31	0xbbc6d845	-0.006068262
32	0xbba53431	-0.005041622
33	0xbbb926e0	-0.005650386
34	0xbb193c63	-0.002338194
35	0xbbb573e3	-0.0055374964
36	0x3ba58e7f	0.0050523872
37	0xbbda3be7	-0.006659973
38	0xbbee85e3	-0.007279144
39	0xbba97b50	-0.0051721707
40	0xbbdefe8f	-0.006805248
41	0xbb3c8d35	-0.002877069
42	0x3a345ce6	0.0006880298
43	0xbaacf900	-0.0013196766
44	0xba7368e2	-0.0009285343
45	0x3ac75f24	0.0015210849
46	0x3ae7faa7	0.0017698602
47	0xbaeaa46f	-0.0017901788
48	0xbb24313e	-0.0025053765
49	0xbb63bb38	-0.0034749042
50	0xbb4d16ca	-0.00312941
51	0xba5ecd91	-0.000849926

exp_inf f4 [2, 2, 13, 1]
0	0x3e89f6c9	0.26946095
1	0x3e6ee88f	0.23330902
2	0x3e578c90	0.21049714
3	0x3de36e30	0.11105001
4	0x3ed4360a	0.4144748
5	0x3f0261e2	0.5093061
6	0x3e285257	0.1643766
7	0x3fb8d225	1.4439131
8	0x3f0351a3	0.5129644
9	0x3e413959	0.18869533
10	0x3f733af4	0.9501183
11	0x3e90ac9c	0.2825669
12	0x3eaad907	0.33368704
13	0x3e1409fb	0.14456932
14	0x3e1138a1	0.14181758
15	0x3e4778f0	0.19479728
16	0x3e698606	0.22805032
17	0x3dcfa01a	0.10137959
18	0x3e629499	0.22126998
19	0x3e48e66f	0.19619153
20	0x3e3e6e7d	0.18596835
21	0x3e3a51e1	0.18195297
22	0x3e163ba0	0.14671183
23	0x3e0917f9	0.13388051
24	0x3e705672	0.23470476
25	0x3dd4a609	0.10383231
26	0x3ca7f7fa	0.020503987
27	0x3c30d233	0.010792303
28	0x3c69ae83	0.014262798
29	0x3c0a5645	0.00844342
30	0x3cca7820	0.024715483
31	0x3c99f806	0.018795025
32	0x3cf28188	0.029602781
33	0x3d3bae53	0.045820545
34	0x3e0a45ee	0.13503239
35	0x3cea2121	0.02858025
36	0x3dc0620d	0.09393702
37	0x3cd68a8a	0.026189107
38	0x3d99604a	0.07489069
39	0x3d1d9745	0.03847434
40	0x3d38d5b4	0.04512568
41	0x3d07a6c0	0.03311801
42	0x3cb45d1d	0.022017056
43	0x3cc0ef1c	0.023551516
44	0x3cf1a382	0.029496912
45	0x3c92e176	0.017929774
46	0x3cc0cac3	0.023534184
47	0x3c8ab436	0.016931634
48	0x3c94ccfa	0.018164147
49	0x3c457593	0.012051958
50	0x3c8c77fa	0.017147053
51	0x3c893b17	0.016751809

exp_avg f4 [2]
0	0x2fbf519f	3.4800693e-10
1	0xb0519aa3	-7.625351e-10

exp_inf f4 [2]
0	0x3443a385	1.8220278e-07
1	0x3299e63c	1.7916243e-08

exp_avg f4 [2]
0	0xbb1085ed	-0.0022052482
1	0xbbaa37f6	-0.0051946593

exp_inf f4 [2]
0	0x3e624b27	0.22098981
1	0x3c9de815	0.019275704

exp_avg f4 [2]
0	0xbdfea1b7	-0.124331884
1	0x3b1b8080	0.0023727715

exp_inf f4 [2]
0	0x3ef42b22	0.47689158
1	0x3d493f43	0.049132597

exp_avg f4 [2, 1, 1, 1]
0	0xb71beb92	-9.293568e-06
1	0x33d7c5c2	1.00476896e-07

exp_inf f4 [2, 1, 1, 1]
0	0x395b5722	0.00020917927
1	0x34b79e64	3.420165e-07

exp_avg f4 [2]
0	0x318db02f	4.12367e-09
1	0xaf1e1a8e	-1.437945e-10

exp_inf f4 [2]
0	0x348fbb28	2.6772e-07
1	0x324cbb7d	1.1916993e-08

exp_avg f4 [2]
0	0x3d1648d0	0.036690533
1	0x3c2ff191	0.010738746

exp_inf f4 [2]
0	0x3e7f2a8f	0.24918579
1	0x3d0c1f8f	0.034209784

exp_avg f4 [2]
0	0xbdfea1b7	-0.124331884
1	0x3b1b8080	0.0023727715

exp_inf f4 [2]
0	0x3ef42b22	0.47689158
1	0x3d493f43	0.049132597

exp_avg f4 [1, 2, 1, 1]
0	0xbda1556b	-0.0787762
1	0xbe189663	-0.14901118

exp_inf f4 [1, 2, 1, 1]
0	0x3efe0d9a	0.49619752
1	0x3f3a9679	0.72885853

exp_avg f4 [1, 2, 1, 1]
0	0x3c149e8e	0.0090710055
1	0x3dc96e17	0.09835451

exp_inf f4 [1, 2, 1, 1]
0	0x3f090ba3	0.5353338
1	0x3f5215e3	0.82064646

exp_avg f4 [2, 1, 1, 1]
0	0xbabc9025	-0.001438622
1	0xb5ef0c2c	-1.781043e-06

exp_inf f4 [2, 1, 1, 1]
0	0x3dc028d2	0.09382786
1	0x38997817	7.317977e-05

exp_avg f4 [2]
0	0xb3413369	-4.498307e-08
1	0xb1e4297a	-6.6403887e-09

exp_inf f4 [2]
0	0x35421d93	7.231367e-07
1	0x33d5798f	9.940697e-08

exp_avg f4 [2]
0	0xbb022173	-0.0019856363
1	0x3acfe43a	0.0015860863

exp_inf f4 [2]
0	0x3d77a694	0.060461596
1	0x3d749936	0.059716426

exp_avg f4 [2]
0	0x3be3cc1b	0.0069518215
1	0x3ad25c52	0.0016049242

exp_inf f4 [2]
0	0x3d7ae8cf	0.06125718
1	0x3d3c8715	0.04602726

exp_avg f4 [2, 2, 13, 1]
0	0x3b3938e3	0.0028262667
1	0xbc809111	-0.015694173
2	0x3cc23688	0.023707643
3	0x3cf0ae87	0.029380096
4	0x3caa4e8f	0.020789413
5	0xbc04fe5f	-0.008117287
6	0xbcf4fcc8	-0.029905692
7	0xb8deda46	-0.000106264415
8	0xbb1f99e2	-0.0024353196
9	0xbbab2d6c	-0.0052239206
10	0x3abb5fad	0.0014295481
11	0x3a1aef6e	0.00059103116
12	0x3c0ab027	0.00846485
13	0x3b3f65a3	0.0029204867
14	0x3b2b3070	0.00261214
15	0xbbff0cb9	-0.007783499
16	0xbc91f73d	-0.017818088
17	0xbc997c99	-0.01873617
18	0xbd21b3a7	-0.03947797
19	0xbc395d6c	-0.011313777
20	0xbc88d9eb	-0.016705474
21	0xbc80b24a	-0.015710015
22	0x3c7cf338	0.015438847
23	0x3b0f8415	0.0021898795
24	0x3b16fa00	0.0023037195
25	0xbd040f1b	-0.03224097
26	0xbaf92053	-0.0019006826
27	0xbb1e5522	-0.002415963
28	0xba07244b	-0.00051552494
29	0xba68eea5	-0.00088856585
30	0xb9eb88c2	-0.00044924585
31	0xba7465fa	-0.0009323057
32	0xbaa099be	-0.001225285
33	0xbb351048	-0.0027628113
34	0x3944bf60	0.0001876331
35	0xbb66ec7e	-0.0035236175
36	0xba9e5546	-0.0012079857
37	0xbac8df6c	-0.0015325374
38	0xb96fc661	-0.00022866718
39	0x38f12d6f	0.00011500238
40	0x35f1458e	1.7976142e-06
41	0x3a09bccc	0.0005254268
42	0xba01c757	-0.00049506634
43	0x3a9f1a40	0.001213856
44	0xbb0a7b4e	-0.0021130624
45	0x3b045a8f	0.0020195579
46	0x3ad70109	0.0016403507
47	0x39052b05	0.00012699894
48	0x3ba2616a	0.0049554603
49	0x3a917a7f	0.0011099129
50	0x39967738	0.00028699054
51	0xbb42e855	-0.0029740531

exp_inf f4 [2, 2, 13, 1]
0	0x3e756383	0.23963742
1	0x3e8031f5	0.25038114
2	0x3e9e87c4	0.30962956
3	0x3eabdc3f	0.33566472
4	0x3f4d1162	0.8010465
5	0x3ebe62b2	0.37184674
6	0x3f0869f2	0.5328666
7	0x3eb71f47	0.3576605
8	0x3ed6ea43	0.41975603
9	0x3e7a4629	0.24440826
10	0x3f3a1d8a	0.72701323
11	0x3ebc7bb8	0.3681314
12	0x3ebad136	0.3648774
13	0x3e0285ec	0.127464
14	0x3e2e5f98	0.17028654
15	0x3e6882ef	0.22706197
16	0x3e49847c	0.19679445
17	0x3ea9463d	0.330614
18	0x3dab4bc3	0.0836406
19	0x3d6921ee	0.056917123
20	0x3db65d04	0.0890446
21	0x3e014625	0.12624414
22	0x3e467d31	0.19383694
23	0x3e097c8e	0.1342642
24	0x3dccee21	0.10006357
25	0x3e0051a0	0.12531137
26	0x3c3a8aa9	0.011385598
27	0x3d124d82	0.03571845
28	0x3cb78e20	0.022406638
29	0x3c175aca	0.009237954
30	0x3c87d8aa	0.016582806
31	0x3cbe44c2	0.023226146
32	0x3bab8e8c	0.005235499
33	0x3c8c33ad	0.017114485
34	0x3c108c66	0.008822536
35	0x3c403296	0.011730811
36	0x3bac4800	0.0052576065
37	0x3c2d7bc7	0.010588593
38	0x3c841709	0.016124265
39	0x3bda91f6	0.006670232
40	0x3bc1daa6	0.0059159575
41	0x3cac2926	0.021015715
42	0x3c0d0ff8	0.008609764
43	0x3c6ce5da	0.014459098
44	0x3bfedde2	0.0077779153
45	0x3c857d2b	0.016295036
46	0x3c52b17e	0.0128597
47	0x3c01412a	0.0078890715
48	0x3c86a406	0.016435634
49	0x3c33be97	0.010970733
50	0x3c3411ac	0.010990541
51	0x3c53358d	0.0128911855

exp_avg f4 [2]
0	0x30acfac0	1.2585915e-09
1	0xadbcfebb	-2.1486249e-11

exp_inf f4 [2]
0	0x33c34a6c	9.0939324e-08
1	0x3290b64d	1.6846707e-08

exp_avg f4 [2]
0	0x3d4cd19d	0.05000459
1	0x3a930d48	0.0011219168

exp_inf f4 [2]
0	0x3e31d266	0.17365417
1	0x3c768d3d	0.015048322

exp_avg f4 [2]
0	0xbca01c9a	-0.019544888
1	0xb9ce28cc	-0.00039321778

exp_inf f4 [2]
0	0x3e78e2be	0.24305245
1	0x3cd8ce10	0.026465446

exp_avg f4 [2, 1, 1, 1]
0	0x3500e47a	4.8016193e-07
1	0x352b62d1	6.384626e-07

exp_inf f4 [2, 1, 1, 1]
0	0x3701c27d	7.734282e-06
1	0x36b2865d	5.3204553e-06

exp_avg f4 [2]
0	0xaf7a8ef9	-2.2788162e-10
1	0x2c9cee10	4.460217e-12

exp_inf f4 [2]
0	0x33463f44	4.6158007e-08
1	0x32bda4bc	2.2077408e-08

exp_avg f4 [2]
0	0x3c4b26bc	0.012399372
1	0xbb370139	-0.0027924313

exp_inf f4 [2]
0	0x3e239909	0.15976347
1	0x3c0c5011	0.008564011

exp_avg f4 [2]
0	0xbca01c9a	-0.019544888
1	0xb9ce28cc	-0.00039321778

exp_inf f4 [2]
0	0x3e78e2be	0.24305245
1	0x3cd8ce10	0.026465446

exp_avg f4 [1, 2, 1, 1]
0	0xbe130fe9	-0.14361538
1	0xbd97015c	-0.07373306

exp_inf f4 [1, 2, 1, 1]
0	0x3f3e8c96	0.7443327
1	0x3ef92c78	0.4866674

exp_avg f4 [1, 2, 1, 1]
0	0x3d8df1a0	0.06930852
1	0x3d9eeaec	0.077596515

exp_inf f4 [1, 2, 1, 1]
0	0x3f48b52b	0.7840144
1	0x3f0fee23	0.5622274

exp_avg f4 [2, 1, 1, 1]
0	0x38f0bf6d	0.000114797476
1	0x38a0286f	7.636926e-05

exp_inf f4 [2, 1, 1, 1]
0	0x3b2f6044	0.002676026
1	0x39905c07	0.00027534386

exp_avg f4 [2]
0	0x32b6c2a6	2.1276104e-08
1	0xb1de22bc	-6.464999e-09

exp_inf f4 [2]
0	0x3505e9ff	4.988687e-07
1	0x343246a1	1.6603236e-07

exp_avg f4 [2]
0	0xbc7a2cd9	-0.015269482
1	0x3ca2e30b	0.019883653

exp_inf f4 [2]
0	0x3dc0e064	0.09417799
1	0x3dce5a17	0.10075777

exp_avg f4 [2]
0	0xbc2133c2	-0.009839
1	0x3c3c7ab6	0.011503866

exp_inf f4 [2]
0	0x3d6d2cbe	0.057903998
1	0x3d58332a	0.05278317

exp_avg f4 [2, 2, 13, 1]
0	0x388622ce	6.396101e-05
1	0x3c5e8b32	0.013582991
2	0x3c1b8b75	0.009493698
3	0x3cf30ae9	0.029668288
4	0x3bf8e66f	0.007595829
5	0x3ca1a435	0.01973162
6	0x3c3509a6	0.011049664
7	0x3c855d94	0.016279973
8	0x3ced08d7	0.02893488
9	0x3d0a8ef7	0.03382775
10	0x3cd62fde	0.026145872
11	0x3cba90d2	0.022774134
12	0x3cf6a00a	0.03010561
13	0x3c1fcf2b	0.009753983
14	0xbc9b3452	-0.018945847
15	0xbcb645aa	-0.022250015
16	0xbd246664	-0.04013671
17	0x3b17cee2	0.0023164083
18	0xbcd5f553	-0.026117956
19	0x3c7711fd	0.015079972
20	0xbc7e4ecd	-0.015521717
21	0xbc7dab0b	-0.015482674
22	0xbce8bb6d	-0.028409684
23	0xbd17274e	-0.03690272
24	0xbd1fab4b	-0.038981717
25	0xbd279999	-0.040917967
26	0xbc238b7c	-0.009981986
27	0xbc0069eb	-0.007837753
28	0xbbfc2c8c	-0.00769574
29	0xbb553174	-0.0032530697
30	0xbbaaea92	-0.0052159512
31	0xbbaa5b9a	-0.005198908
32	0xbb287153	-0.0025702312
33	0xbb3fcd76	-0.0029266751
34	0xbb4bd8e8	-0.0031104628
35	0xba94fff4	-0.0011367784
36	0xb9887de1	-0.00026033728
37	0xbb242207	-0.0025044696
38	0x3ad19eaf	0.0015992726
39	0x3c0c020a	0.008545408
40	0xba0e654b	-0.0005431964
41	0x3ab41099	0.0013737857
42	0xbb5e2512	-0.0033896607
43	0x3a7b1317	0.0009577735
44	0xb9bc7e1b	-0.0003595211
45	0x3a2d2c19	0.00066059973
46	0x38715237	5.7535446e-05
47	0x3a0de060	0.00054121576
48	0x3aa2de2c	0.0012425832
49	0xb90af077	-0.00013250286
50	0xba487935	-0.0007647456
51	0xbb3414d5	-0.0027478237
